Titanic (SVM)/model/model1.pth (torch_old, 1196 bytes, 3 tensors)

main.0.weight f4 [10, 6]
-1.162204 -4.767413 -0.02480369 -0.935876 -0.2973221 0.06488867 1.5568843 5.6785803
0.09572311 0.81942505 0.3065261 -0.06153203 -0.50413495 0.58551335 0.058051217 1.0161575
-0.24730825 -0.015027093 0.010182876 -0.4806471 0.013511199 1.3703895 0.5000776 -0.021580795
-0.50076413 -1.4489669 0.0091793025 -0.737213 -0.7647824 0.023710672 -0.58399475 1.0157745
-0.02459946 -0.7530687 -1.4259515 0.051774137 -0.9012824 -1.4910027 -0.0029068608 -0.9695773
-0.72058105 0.036601063 -0.7582374 0.5195097 -0.005228978 0.99150705 -1.2461674 0.055783127
-0.5774595 -1.0486782 -0.0073888227 0.11541624 -0.9916608 0.018147338 0.2610695 0.026449248
-0.07969918 -0.6577927 -0.56070954 0.044002593
00000000: 1ac3 94bf a68e 98c0 1c31 cbbc 9295 6fbf
00000010: 9a3a 98be 5ae4 843d fc47 c73f eeb6 b540
00000020: 7a0a c43d d7c5 513f fdf0 9c3e 0309 7cbd
00000030: fd0e 01bf 34e4 153f 1dc7 6d3d 7311 823f
00000040: 603e 7dbe 3234 76bc 14d6 263c 6017 f6be
00000050: 135e 5d3c ec68 af3f 1605 003f 35ca b0bc
00000060: 1432 00bf bf77 b9bf c964 163c feb9 3cbf
00000070: c8c8 43bf e23c c23c ae80 15bf e604 823f
00000080: cf84 c9bc 1cc9 40bf 9485 b6bf 1e11 543d
00000090: 72ba 66bf 2dd9 bebf 0881 3ebb 3836 78bf
000000a0: 0078 38bf ffea 153d d91b 42bf 96fe 043f
000000b0: d957 abbb 68d3 7d3f 6a82 9fbf d97c 643d
000000c0: 63d4 13bf 163b 86bf f01d f2bb 5a5f ec3d
000000d0: 7bdd 7dbf baa9 943c e7aa 853e 18ac d83c
000000e0: 5339 a3bd 1a65 28bf a98a 0fbf 103c 343d

main.0.bias f4 [10]
2.4351432 -2.52009 -1.03206 -0.22808015 1.5122616 -0.41734645 1.8849256 -0.7356939
1.3154488 0.923633
00000000: 63d9 1b40 2849 21c0 8b1a 84bf d88d 69be
00000010: ca91 c13f 6fae d5be 3e45 f13f 6f56 3cbf
00000020: a060 a83f 3673 6c3f

main.1.weight f4 [1, 10]
0.14534461 -0.35842255 -0.029370861 -0.017519992 0.007436791 0.037240986 0.020937167 0.009163667
0.00013489574 0.021159844
00000000: 38d5 143e 2983 b7be 299b f0bc 1686 8fbc
00000010: 53b0 f33b 018a 183d 6c84 ab3c 3523 163c
00000020: cd72 0d39 6957 ad3c
