ANNs/Titanic (MLP-Pytorch)/model/model2.pth (torch_old, 2098 bytes, 3 tensors)

main.0.weight f4 [10, 28]
00000000: d796 b93e 390d debd 1b10 cf3e df53 1c3d
00000010: 2c2a 88be f05e 84bd c8c9 45bb 5728 43be
00000020: 7aed ab3e 0833 173e ae6f 1dbe c9f3 90be
00000030: 019b 39bd 6559 df3e 0c1b 583e 5ca2 51bd
00000040: c17e 8dbd c373 213d 23e0 f13c 70d4 493d
00000050: 6c2a 293e 24c2 be3d 7b95 94be a428 cbbe
00000060: 2103 14be 714d 7ebe 859b 0ebe bba5 05be
00000070: a4b6 ac3d c6bd d9be d89a 8bbe 5bdf 413e
00000080: c6d8 8f3d 9d6a e8bc dc42 a2bd eaa1 dbbd
00000090: cb2e 8bbe 3e64 24be aa91 4fbe f2fd 55bd
000000a0: 2314 193d e5b0 5dbe f956 0bbe d8e5 86bd
000000b0: c83f 64be 8800 72be ca76 753c da46 3f3e
000000c0: 6341 f43b 2045 7d3e f1a1 45bd 1904 21be
000000d0: 5632 e83d 262f 77be c163 7f3d e8ab df3d
000000e0: cff9 59bd d271 aebe f5ea 63be e8c0 923d
000000f0: 771d bb3d a20e 223d f44e 143e faa3 c5be
00000100: c413 babe 78de aebe 3f8b 9ebe d386 c13d
00000110: f8cf 0abe 65f1 b3bd 4fd2 37be 2dd3 d5bd
00000120: 0119 c43c 226a a5bd 6be1 babb d36f 693e
00000130: fd0c 25bd 533b d63d 688b 89be dbb4 b2bd
00000140: 4702 4b3e 578a 8dbd 9337 57bd 85af 1f3e
00000150: 5722 7f3e bc1f 153e 3920 893e 2ef0 793e
00000160: c54c 163d a455 243e 661d 8cbe bb4f 963e
00000170: c211 b33d d985 473e a686 7a3e a80e 1f3d
00000180: 6ff8 f1bc e042 063e d27e bb3d 6e53 003e
00000190: ec42 843d f485 393e 59be 0d3e 3e49 063d
000001a0: f834 7e3e c143 983b 3111 1b3e 83b3 24bc
000001b0: 29b1 393e 8783 8e3d 2772 2bbd 02f7 babb
000001c0: e6ab a6bd bd32 393e 3a75 14bc e505 68bd
000001d0: 9061 0cbe 5757 2dbe fe52 f9bd 49f7 9a3d
000001e0: 920d 36bd 4c90 353e edf3 6abd 0274 3abe
000001f0: f120 5b3e 1c0f bbbb b4bd bf3d 0787 313d
00000200: 4ca6 c2bd f641 76bc 9af7 b03d 79a3 a2bd
00000210: e843 bc3b bd1b d63d deab 753d faee 8d3d
00000220: b5e9 383d 742b 18bd cb1b 123e 95b7 273e
00000230: 319a 1fbe 06b2 bbbe c08f 9cbe eee4 96bc
00000240: fdd4 c2bd 6120 e9bc 7614 db3b e354 17be
00000250: fb81 c2bd b521 1fbe 131d 1bbe 6649 0c3e
00000260: 841b 0abd 5e1e ebbd 43d5 76be add0 b83d
00000270: 244c a0bd 5673 21be 9fa7 1cbc 134f 1fbe
00000280: 90d6 1bbd 3590 b43d 4d38 23bd d30e aabd
00000290: de72 65be 8448 ec3c a9cd 723d 8ea5 7bbd
000002a0: 6855 c13e 95b8 803e 2199 ab3b 6a3c 763b
000002b0: 126b ecbc 819f 2abe a9a7 08bd 0da2 87bd
000002c0: f454 45bd 0f45 c43c 7daa 4fbe 9c65 33bd
000002d0: a123 9abe 310c 923e c95c af3b 5653 6fbe
000002e0: 7d54 14be d163 3f3e 2b65 eabc 0167 7c3c
000002f0: 97a9 babd 6ccf 56bd 348e 98be 96ce b0be
00000300: ae36 a6be 049e 9dbe 1c72 173a b044 083d
00000310: 378b 4fbe 74a6 ddbc c8c1 633e 4bd3 03be
00000320: d0b3 d43d e8a4 653d 1e96 bd3d 0100 5e3d
00000330: db4d 843d 9f9b 9ebd 5079 ab3c 1446 363e
00000340: 1cb6 44be 9077 88bd b2f7 5dbe fb6d 9b3d
00000350: a449 613e d71b 993d 447e a83b 28b3 1fbe
00000360: 0f47 98be 7f17 e4bd d84e 3f3c df74 c8bd
00000370: a22d 1abe 9abf 093c 9c60 263c 906b 053e
00000380: b306 b33d fded 28be 0cc7 a2be 29ff 313e
00000390: d26c a93c fa4f 263d 093c 143d 61b4 41be
000003a0: 0995 89bd 3651 b1be 97b4 32be 4091 51be
000003b0: 7046 86bd a2a3 aabe 7a2b 45bd ac0a 37bd
000003c0: 657b de3d 6fca 33be ab04 093e bd54 1f3e
000003d0: af02 14be 7017 563e f269 74be 8cd2 09bd
000003e0: ea33 31be ac03 e13d ee77 80be b9a8 28be
000003f0: cac6 11be c76e 6a3e 5b66 b5bc 5455 483d
0.36247894 -0.10842366 0.40441975 0.038165923 -0.26594675 -0.064634204 -0.0030180085 -0.19058357
0.33579618 0.1476556 -0.15374634 -0.28310993 -0.04531384 0.4362289 0.21104068 -0.05118023
-0.06908942 0.03941704 0.029525822 0.04927486 0.16520089 0.09314373 -0.29020295 -0.39679444
-0.14454319 -0.24834229 -0.13926513 -0.13051502 0.084332734 -0.42527598 -0.27266574 0.1893286
0.07023768 -0.02837115 -0.07922909 -0.10724242 -0.27184138 -0.16053864 -0.2027041 -0.052244134
0.03737272 -0.21649511 -0.13607396 -0.06586808 -0.22289956 -0.23633015 0.014981935 0.18679371
0.0074540838 0.247334 -0.048250142 -0.1572422 0.11337726 -0.2413908 0.062350992 0.109214604
-0.05321675 -0.34071213 -0.22257598 0.071657 0.09136479 0.039564736 0.14483243 -0.38601667
-0.36343205 -0.34154105 -0.3096561 0.09449544 -0.13555896 -0.08786277 -0.1795132 -0.10440669
0.023937704 -0.08076884 -0.0057031414 0.22796564 -0.04029559 0.10460534 -0.2686417 -0.08725902
0.19825087 -0.06911152 -0.052543234 0.15594299 0.24915443 0.14562887 0.26782396 0.24408028
0.036694307 0.16048294 -0.2736618 0.29357705 0.087436214 0.19484653 0.24465427 0.038832337
-0.029537408 0.13111448 0.091550484 0.12531826 0.06458077 0.18117505 0.13842143 0.032784693
0.24824893 0.004646749 0.15143277 -0.010052565 0.18133987 0.069586806 -0.04185691 -0.005705715
-0.08138256 0.18085761 -0.009061152 -0.056646246 -0.13709092 -0.16927849 -0.12174033 0.07566697
-0.044446535 0.17730826 -0.057361532 -0.18208316 0.21399285 -0.0057085883 0.09362355 0.043341663
-0.09504375 -0.015030375 0.08640976 -0.07941336 0.0057453997 0.104545094 0.05997836 0.06930347
0.045144755 -0.037150815 0.14268415 0.16378625 -0.15586163 -0.3665926 -0.30578423 -0.018419709
-0.095132805 -0.028457822 0.0066857887 -0.14778475 -0.09497448 -0.15540202 -0.1514781 0.13699874
-0.033717647 -0.114804015 -0.2410479 0.09024177 -0.07827023 -0.15766653 -0.009561448 -0.15557508
-0.03804642 0.08816568 -0.039848614 -0.08303609 -0.224071 0.028843172 0.059278164 -0.061437182
0.37760472 0.25140825 0.0052367602 0.003757263 -0.028859649 -0.16662408 -0.03336302 -0.066227056
-0.04817672 0.023958711 -0.2027988 -0.043798074 -0.30105308 0.28524926 0.005351637 -0.23371634
-0.14485355 0.1869042 -0.028612694 0.015405417 -0.09114378 -0.052443907 -0.29795992 -0.34532613
-0.32463592 -0.3078462 0.00057771965 0.03326863 -0.2026795 -0.02705691 0.2224189 -0.1287357
0.10385859 0.05606547 0.09257148 0.054199222 0.06460162 -0.07744526 0.02093187 0.1780017
-0.19210094 -0.0666343 -0.2167652 0.075893365 0.22000748 0.07476013 0.005142005 -0.15595686
-0.29741713 -0.11137294 0.011676513 -0.097879164 -0.1505647 0.008407498 0.010154869 0.13029313
0.08741512 -0.16497035 -0.31792486 0.17382492 0.020681772 0.040603615 0.036190066 -0.18916465
-0.06717879 -0.34632272 -0.17451702 -0.20465565 -0.06556404 -0.33327967 -0.048137166 -0.044687912
0.108633794 -0.17557691 0.13380687 0.15559669 -0.14454149 0.20907378 -0.2386854 -0.03364806
-0.1730496 0.109870285 -0.250915 -0.16470613 -0.14235988 0.2289382 -0.022143533 0.0489095

main.0.bias f4 [10]
00000000: c46e a43d 6197 c23d 35b1 3c3d 8d1d d33e
00000010: 9b21 ddbd 809b 7c3d 3528 0f3e 5aaf a2bc
00000020: c528 c83d 8f11 39bc
0.08028939 0.095015295 0.046067435 0.41233483 -0.10797425 0.061671734 0.13980182 -0.019859005
0.09773401 -0.01129569

main.2.weight f4 [1, 10]
00000000: 376a 0abf da4a 963e cac8 e43e e15c 9ebe
00000010: 849e 253e e107 943e 2f37 c9be ee76 973e
00000020: 263d b93e b51b d8be
-0.5406832 0.29353982 0.4468444 -0.30930236 0.1617375 0.2891226 -0.39299914 0.29582924
0.36179465 -0.4220864
